App/ml/num_classifier_COMBINED.tflite (tflite, 901908 bytes, 10 tensors)

arith.constant f4 [128]
0	0xbd6bd146	-0.057572626
1	0xbe00c64f	-0.12575649
2	0xbc061744	-0.008184258
3	0xbd07b948	-0.033135682
4	0xbcc29e40	-0.0237571
5	0xbdaed5c8	-0.08536869
6	0xbd98acf1	-0.07454861
7	0xbd9b6b76	-0.07588856
8	0xbc972bac	-0.018453442
9	0xbd029532	-0.031880565
10	0xbdb8fd91	-0.09032739
11	0xbd479816	-0.048729025
12	0xbdd16e7f	-0.102261536
13	0xbd80f484	-0.06296638
14	0x3d606a23	0.05478872
15	0x3cb8ef99	0.022575187
16	0xbd8ee27a	-0.06976791
17	0xbcba0cb3	-0.022711134
18	0xbd262a27	-0.040567543
19	0x3cc85a3a	0.024457086
20	0xbcebb0bd	-0.028770799
21	0xbdaf1154	-0.08548227
22	0xbd6921d0	-0.05691701
23	0xbd43a39b	-0.04776345
24	0x3cb0460f	0.021517782
25	0xbd5dc556	-0.054143272
26	0xbdcf63a6	-0.10126428
27	0xbd8ebb3a	-0.069693044
28	0xbda05837	-0.07829326
29	0xbda223e9	-0.079170056
30	0xbdcd5eb0	-0.10027826
31	0xbd7180b6	-0.05896064
32	0xbda350c9	-0.07974393
33	0xbd822d37	-0.0635628
34	0xbc9c9c3b	-0.019117465
35	0xbcd09228	-0.025460318
36	0xbd0a65ea	-0.0337886
37	0x3bf81a32	0.007571482
38	0xbb9473e4	-0.004530417
39	0xbd849e8a	-0.064755514
40	0xbd213927	-0.039361145
41	0xbdb9ae00	-0.09066391
42	0xbdbe4c3a	-0.09291883
43	0xbd290637	-0.041265693
44	0xbda62893	-0.08113208
45	0xbd08e927	-0.033425476
46	0xbd671f0d	-0.056426097
47	0xbb941614	-0.0045192335
48	0xbd1f5d57	-0.038907375
49	0xbc88974a	-0.016673703
50	0xbc395051	-0.011310653
51	0xbb00673f	-0.001959279
52	0xbd48e408	-0.049045593
53	0xbd799811	-0.060936037
54	0xbd05eb24	-0.03269495
55	0xbda46317	-0.080267124
56	0xbd8c78ae	-0.06858955
57	0xbd05d083	-0.032669555
58	0xbd9d511e	-0.076814875
59	0x3b1f85c0	0.0024341196
60	0xbd94d5e0	-0.07267356
61	0xbd8f4761	-0.06996036
62	0xbdd23c5d	-0.1026542
63	0xbd11e1af	-0.03561562
64	0xbd92d754	-0.07169977
65	0xbdaef80e	-0.085434064
66	0xbdc6988e	-0.09697066
67	0xbd8a4e05	-0.06753162
68	0xbd75defe	-0.060027115
69	0xbd2659ab	-0.040612858
70	0xbd0ed3e9	-0.034870062
71	0xbd7b2766	-0.06131687
72	0xbd89c054	-0.06726137
73	0xbcc93f77	-0.024566395
74	0xbd900aef	-0.070333354
75	0xbd4377be	-0.047721617
76	0xbcfeb568	-0.03109236
77	0xbd056a8c	-0.032572314
78	0xbe15da34	-0.14634019
79	0xbd4b9a0d	-0.04970746
80	0xbd36693d	-0.044533957
81	0xbd79c194	-0.060975626
82	0xbc97ec9e	-0.018545445
83	0xbd213f6d	-0.03936713
84	0xbd3d4eb1	-0.046217624
85	0xbc78a6db	-0.0151765
86	0xbd696f83	-0.05699111
87	0xbddf49fb	-0.109027825
88	0x3cfdd540	0.030985475
89	0xbdff1e54	-0.124569565
90	0xbdb0f2ef	-0.08640086
91	0xbd902408	-0.070381224
92	0xbd1c0fd5	-0.038101036
93	0xbcc17e5e	-0.023619827
94	0xbcb77ec2	-0.02239931
95	0xbdbbf981	-0.091784485
96	0xbdaea98d	-0.08528433
97	0xbd213daa	-0.039365448
98	0xbdc5a641	-0.09650851
99	0xbd6689a1	-0.056283597
100	0xbd0c79e0	-0.034295917
101	0xbd84ca30	-0.06483877
102	0xbd02fc21	-0.03197873
103	0xbde595d8	-0.11210221
104	0xbd7be6e4	-0.06149949
105	0x3cf19cf4	0.029493786
106	0xbdb46d3f	-0.088098995
107	0xbd348a78	-0.044077367
108	0xbb9af43a	-0.004728821
109	0xbabd7685	-0.0014454877
110	0xbd0aed10	-0.033917487
111	0xbd9cd335	-0.07657472
112	0xbd2c18bc	-0.042015776
113	0xbbfb0ddd	-0.0076615647
114	0xbe04c683	-0.12966351
115	0xbd5e06e4	-0.05420579
116	0xbcf09cd5	-0.029371658
117	0xbd3f4344	-0.04669501
118	0xbd0bbc8f	-0.03411537
119	0xbc7d9ef6	-0.015479794
120	0xbdb49707	-0.08817869
121	0xbcccd5dd	-0.025004322
122	0xbdb081fb	-0.08618542
123	0xbd0c158e	-0.034200244
124	0xbd852f34	-0.06503144
125	0xbd350774	-0.04419656
126	0xbd8a33f2	-0.06748189
127	0xbcfdc2e4	-0.03097672

arith.constant1 f4 [64]
0	0x3d9b8120	0.07592988
1	0xbc4bc893	-0.012437957
2	0xbda20b7d	-0.079123475
3	0xbdd61fe0	-0.104552984
4	0x3cc918bf	0.024547933
5	0x3baca5ea	0.005268802
6	0x3d0a7190	0.033799708
7	0x3cfba15e	0.030716594
8	0x3ba67c1f	0.0050807144
9	0x3d06d453	0.032917332
10	0xbcc9d0f4	-0.02463577
11	0x3e207bdb	0.15672247
12	0xbd592113	-0.053010058
13	0xbc976e03	-0.018485075
14	0xbcd5e1ff	-0.02610874
15	0xbd3f64a3	-0.046726834
16	0x3b80c343	0.003929527
17	0xbd254796	-0.040351473
18	0xbddb00d2	-0.10693516
19	0xbc08aa3c	-0.008341368
20	0xbca7af8a	-0.020469446
21	0xbda1df5c	-0.079039305
22	0xbb7204f4	-0.0036929222
23	0xbdd67e39	-0.10473294
24	0x3ab849c0	0.0014060065
25	0xbdbdf47c	-0.09275147
26	0xbcf78b9c	-0.030217938
27	0xbc5be3c5	-0.013421004
28	0xbcc44083	-0.023956543
29	0x3db703d2	0.089362755
30	0xbcdeeb7c	-0.027211897
31	0xbd4c2bde	-0.049846523
32	0x3d22ab51	0.03971416
33	0xbdcc4b2d	-0.09975276
34	0xbd42aa52	-0.04752571
35	0xbdef0e41	-0.116726406
36	0xbdd74143	-0.105104946
37	0xbd496a7c	-0.049173817
38	0xbca8d273	-0.020608163
39	0xbdb2a87a	-0.087235406
40	0xbd8a488b	-0.06752118
41	0xbd0ce24c	-0.0343955
42	0xbdb95a73	-0.09050455
43	0xbd28b3a4	-0.041186944
44	0x3d982bec	0.074302524
45	0xbdf2c907	-0.11854749
46	0xbd785463	-0.060627352
47	0xbdd49f80	-0.10381985
48	0xbd5c23ca	-0.05374507
49	0xbd4f86bf	-0.050665613
50	0xbdd6f666	-0.104962155
51	0x3c95dc76	0.0182936
52	0xbdf22b7e	-0.11824702
53	0xbd41ce48	-0.047315866
54	0xbcd1f89e	-0.025631245
55	0xbdc735c9	-0.097270556
56	0x3d4be8ac	0.04978244
57	0xbdd2a370	-0.102850795
58	0xbd97b7a0	-0.074080706
59	0x3c9d3719	0.019191312
60	0xbd987dea	-0.07445891
61	0xbdf92b92	-0.121665135
62	0xbd81d15a	-0.06338759
63	0x3cca8882	0.024723295

arith.constant2 f4 [128, 3, 3, 64]
0	0x3db4c4e4	0.088266164
1	0xbd9b9da9	-0.07598431
2	0xbb6efa48	-0.0036465097
3	0x3b9a2837	0.004704501
4	0xbc93d60b	-0.0180464
5	0xbc86dbaf	-0.016462175
6	0xbdb3e5fd	-0.08784101
7	0xbd1fa7a3	-0.03897823
8	0xbb912ea1	-0.0044306074
9	0xbd363fe9	-0.044494543
10	0xbc92aa42	-0.01790345
11	0xbc4c67af	-0.012475892
12	0xbd64dd7a	-0.05587528
13	0xbde04eff	-0.10952567
14	0xbcfc8538	-0.030825242
15	0xbcdd46c3	-0.02701128
16	0x3cb6e273	0.022324776
17	0xbd11fc3c	-0.03564094
18	0xbd4f750f	-0.050648745
19	0xbcb61111	-0.022224935
20	0x3d07f3fd	0.03319167
21	0x3bd37bd4	0.0064539704
22	0x3d2ba535	0.0419056
23	0x3cd99200	0.026558876
24	0x3d0d6a91	0.034525458
25	0xbd012053	-0.031524967
26	0xbd801954	-0.06254831
27	0xbc423bb8	-0.011855058
28	0xbd7a00ea	-0.061036028
29	0x3d225034	0.03962727
30	0xbb23322f	-0.0024901738
31	0x3cd0806e	0.025451865
32	0x3db58911	0.08864034
33	0x3d5f5847	0.054527547
34	0xbddbed6f	-0.10738646
35	0xbd1af813	-0.03783424
36	0x3cc5020b	0.024048826
37	0x3cabefa3	0.020988291
38	0x3d3733c0	0.044727087
39	0xbb3dee5d	-0.0028981187
40	0x3d0fa437	0.035068717
41	0xbda353a0	-0.079749346
42	0xbd64b944	-0.055840746
43	0xbe042a44	-0.12906748
44	0xbceb3c75	-0.028715352
45	0xbe56fa3d	-0.20993896
46	0x3c1927ac	0.009347837
47	0xbc866fd9	-0.016410755
48	0xbc7d9ed9	-0.015479767
49	0xbd8ea90c	-0.06965837
50	0xbc85de6b	-0.016341409
51	0xbe00b301	-0.12568285
52	0xbe1d38b3	-0.1535366
53	0xbd7c69bd	-0.061624277
54	0xbdde2b0e	-0.10848056
55	0xbdf530c8	-0.11972195
56	0xbd9e8095	-0.07739369
57	0x3bdc06fa	0.006714699
58	0x3c7da8f8	0.01548218
59	0xbe28085e	-0.16409442
60	0x3d813457	0.06308811
61	0xbddd8e69	-0.10818178
62	0xbd46058f	-0.048345145
63	0x3d57089f	0.052498456
64	0xbdc2730e	-0.09494601
65	0xbd36b184	-0.044602886
66	0xbcd54e1e	-0.026038226
67	0xbb9f7d30	-0.0048672184
68	0xbd7f410b	-0.06231789
69	0x3d238928	0.039925724
70	0x3d529032	0.051407047
71	0xbcec9e50	-0.028884083
72	0x3d321278	0.043474644
73	0xbc5b2cbf	-0.0133773675
74	0xbd453aa3	-0.048151623
75	0xbc83c47f	-0.016084908
76	0x3cae9dbf	0.021315454
77	0xbd46afd9	-0.048507545
78	0x3cca922b	0.024727901
79	0xbc82772c	-0.015925966
80	0x3cba265f	0.022723375
81	0xbdd60c93	-0.10451617
82	0xbd6e72cf	-0.05821496
83	0xbd703d34	-0.058652118
84	0xbc00c2fa	-0.007858986
85	0xbd16b429	-0.036792908
86	0xbadb2dd2	-0.001672203
87	0xbd839835	-0.064255156
88	0xbd9ae906	-0.07563977
89	0xbdd63701	-0.1045971
90	0x3c3c0c99	0.011477613
91	0xbe0d04f3	-0.13771419
92	0xbd45191a	-0.04811964
93	0xbdfe62d7	-0.12421196
94	0xbd4e4676	-0.050360166
95	0xbcbfcb3c	-0.02341234
96	0x3be702ba	0.0070498856
97	0xbd5dbc79	-0.05413482
98	0xbd65f78c	-0.056144282
99	0xbe1fc342	-0.15601829
100	0xbd9571f6	-0.07297127
101	0x3bcfb837	0.006339099
102	0xbda592c4	-0.08084634
103	0xbe4d72ef	-0.20063375
104	0xbca3a993	-0.01997832
105	0xbc46d9d2	-0.012136893
106	0xbce4423d	-0.027863616
107	0x3a13dece	0.00056408055
108	0xbc89c502	-0.016817573
109	0x3c13b348	0.009014912
110	0xbb21de38	-0.0024699103
111	0xbe0c07d3	-0.1367486
112	0xbbbb72ad	-0.0057204575
113	0x3cd2a44f	0.025713114
114	0xbe0f7e99	-0.14013137
115	0x3c8c53a4	0.017129727
116	0xbe1b9834	-0.1519478
117	0xbd7a0200	-0.061037064
118	0xbdb8fcc5	-0.09032587
119	0xbc94bcff	-0.018156527
120	0xbc9d4314	-0.019197024
121	0x3dcd8290	0.100346684
122	0x3c12c13c	0.0089572035
123	0xbd1f6c8d	-0.03892188
124	0xbd0400f3	-0.032227468
125	0xbdd684de	-0.10474561
126	0xbd01f109	-0.03172401
127	0xbca09318	-0.01960139
128	0x3c4e2093	0.0125810085
129	0xbc7eb08b	-0.015545021
130	0x3bb3885e	0.0054789027
131	0xbd1d3077	-0.038376298
132	0xbcfe23f3	-0.031023001
133	0xbdc66981	-0.09688092
134	0xbc10bdfe	-0.00883436
135	0xbd77024e	-0.060304932
136	0xbde8b08f	-0.11361801
137	0xbd1b26d7	-0.037878837
138	0xbc3e9a1a	-0.01163342
139	0xbd308f71	-0.043105546
140	0xbdf6f35e	-0.12058137
141	0xbd05019d	-0.03247224
142	0xbd51d110	-0.05122477
143	0xbd6c7561	-0.05772913
144	0x3d62994b	0.055321973
145	0xbdb1d23d	-0.08682678
146	0x3c1cea19	0.009577298
147	0xbda19b5f	-0.07890963
148	0xbd454dd7	-0.048169937
149	0xbdf853f4	-0.12125388
150	0x3d0ea9c2	0.034829862
151	0x3c6cabee	0.014445288
152	0xbd9eae7e	-0.077481255
153	0xbdf516ea	-0.11967261
154	0x3cf7311f	0.03017479
155	0xbac5d645	-0.0015093765
156	0xbde4bc56	-0.11168735
157	0xbd82dced	-0.063897945
158	0xbdc5bbef	-0.09654986
159	0xbd0bc3b0	-0.03412217
160	0xbd89eba1	-0.06734396
161	0xbc487cae	-0.012236757
162	0xbd4f3cd7	-0.05059513
163	0xbdf27f58	-0.11840695
164	0x3dbda4ad	0.09259925
165	0xbd182530	-0.03714484
166	0xbd9cb34b	-0.07651385
167	0xbd777a61	-0.060419444
168	0xbc3a9749	-0.011388608
169	0xbdcff80c	-0.10154733
170	0xbda029ff	-0.0782051
171	0x3dd622b0	0.10455835
172	0xbdaa5599	-0.08317108
173	0xbdaff90d	-0.085924245
174	0xbdab30c2	-0.08358909
175	0xbd94a37d	-0.072577454
176	0xbddd7fe5	-0.108154096
177	0xbda2c568	-0.079478085
178	0xbbe5b8eb	-0.0070105693
179	0xbae3dd20	-0.0017384626
180	0xbc7e6f18	-0.0155294165
181	0xbd39ea0c	-0.04538922
182	0xbdc15e02	-0.09441759
183	0x3968b3a9	0.00022192173
184	0xbdd12e72	-0.10213937
185	0xbd3b64ac	-0.045750305
186	0xbc99fad9	-0.018796371
187	0xbdbd4538	-0.09241718
188	0xbdddbd3d	-0.1082711
189	0xbd0d14c7	-0.034443643
190	0xbd3a8575	-0.04553743
191	0xbda0fefb	-0.07861134
192	0xbd95ba3d	-0.07310913
193	0xbca26f17	-0.019828362
194	0xbd001be4	-0.0312766
195	0xb971a4a8	-0.0002304489
196	0xbcf07dec	-0.02935692
197	0x3d2cda06	0.04220011
198	0x3cc06eb6	0.023490291
199	0xbd83a3a4	-0.06427696
200	0x3d3609f4	0.044443086
201	0xbdfee022	-0.12445094
202	0xbd41f291	-0.04735047
203	0xbd18b4a3	-0.037281644
204	0xbe1cf573	-0.15328006
205	0xbb9d04e3	-0.0047918423
206	0xbd945f73	-0.07244768
207	0xbd81bdc1	-0.06335021
208	0x3d0109a7	0.031503346
209	0xbe1b0ec4	-0.15142351
210	0xbdd6c65f	-0.10487055
211	0xbd33a107	-0.04385474
212	0x3d48d98d	0.049035598
213	0xbd465188	-0.048417598
214	0x3b73d138	0.0037203562
215	0xbcc42ba2	-0.023946587
216	0x3cc081b5	0.02349935
217	0xbcb82df1	-0.022482844
218	0x3d56e690	0.052465975
219	0xbe229c1c	-0.15879864
220	0xbdfe40ca	-0.12414701
221	0xbdac124d	-0.08401928
222	0xbdc8425c	-0.09778282
223	0xbd2ce79f	-0.04221308
224	0xbcd503f4	-0.026002862
225	0x3c96f578	0.018427595
226	0x3d21914d	0.03944521
227	0x3c575a44	0.01314408
228	0x3bcf681e	0.0063295504
229	0xbdb4d02e	-0.088287696
230	0xbd0f0e8d	-0.034925986
231	0xbd6d5727	-0.057944443
232	0xbd96f193	-0.073702954
233	0xbe00be36	-0.1257256
234	0xbdc95ba3	-0.098319314
235	0xbb5bb28d	-0.0033523173
236	0xbdad6131	-0.084658034
237	0xbd6da1a6	-0.058015488
238	0xbd91ad81	-0.07113171
239	0xbd9360db	-0.07196208
240	0xbd212847	-0.039345052
241	0xbd8376dc	-0.06419155
242	0xbdd3b70e	-0.10337649
243	0x3b4ad50f	0.0030949747
244	0xbc70f7b4	-0.0147074945
245	0x3c2e0cc5	0.010623162
246	0xbdaa3e12	-0.0831262
247	0xbacef117	-0.0015788403
248	0xbdb29d20	-0.087213755
249	0xbe169140	-0.14703846
250	0xbd6af54c	-0.05736284
251	0xbc89b825	-0.01681144
252	0xbd29b4f3	-0.041432332
253	0xbde2d3ff	-0.11075591
254	0xbc92527c	-0.017861597
255	0x3d243ef0	0.040099084

arith.constant3 f4 [64, 3, 3, 32]
0	0x3e7dd374	0.24787694
1	0x3c744f11	0.014911429
2	0xbd2bb09e	-0.041916482
3	0xbbb2effe	-0.005460738
4	0xbe8de21f	-0.2771158
5	0xbebcfc5b	-0.36911282
6	0x3e7c4793	0.24636678
7	0xbe058440	-0.1303873
8	0xbe3486b7	-0.17629515
9	0x3d9c497d	0.07631204
10	0xbd289aae	-0.04116314
11	0xbd587394	-0.0528446
12	0xbe002ceb	-0.12517135
13	0xbdb04942	-0.08607723
14	0xbdb20fff	-0.08694457
15	0xbec79dae	-0.38987488
16	0xbdb8e02f	-0.090271346
17	0x3e1de702	0.15420154
18	0xbe046805	-0.12930305
19	0x3ea594a9	0.3233998
20	0x3e26af27	0.16277753
21	0xbda912ee	-0.08255564
22	0xbe14c54c	-0.14528388
23	0xbe218a06	-0.15775308
24	0xb8bf3ee4	-9.119304e-05
25	0xbe5af47c	-0.21382326
26	0x3cf6e0a0	0.030136406
27	0x3d78b148	0.060715944
28	0x3b78ae53	0.0037945702
29	0xbe139932	-0.14413908
30	0x3d4a2351	0.049350087
31	0xbde28f8e	-0.11062537
32	0x3eaaf444	0.33389485
33	0xbdbf9f1c	-0.093565196
34	0xbe861186	-0.26185244
35	0xbde9f2d6	-0.114232704
36	0xb95f0079	-0.00021267113
37	0xbec64384	-0.38723385
38	0x3dcb4159	0.099245735
39	0xbd6b7f1a	-0.05749426
40	0xbdebf5a3	-0.11521461
41	0xbd8a2b33	-0.06746521
42	0xbe539d0f	-0.20665382
43	0xbe11ad60	-0.14226294
44	0xbeae1684	-0.34001553
45	0xbe76f3c9	-0.24116434
46	0xbe4d1b6d	-0.20029993
47	0xbe9d01af	-0.30665347
48	0xbe38e35b	-0.18055479
49	0xbe0a3959	-0.13498439
50	0xbe7d2327	-0.24720441
51	0x3d40d50f	0.04707819
52	0x3de9f306	0.11423306
53	0xbe135430	-0.14387584
54	0xbe1f3ea8	-0.15551245
55	0xbea6cf13	-0.3257986
56	0x3de1855f	0.11011767
57	0xbe631246	-0.2217494
58	0xbe15b20e	-0.14618704
59	0xbdf08597	-0.1174423
60	0xbe182c72	-0.14860705
61	0xbe8f0d2e	-0.27939743
62	0xbe46e2ed	-0.19422503
63	0xbd94b6aa	-0.07261403
64	0x3e462617	0.19350468
65	0xbe0c66ed	-0.13711138
66	0xbc4a7aaa	-0.012358347
67	0xbd497a15	-0.049188692
68	0x3e077744	0.1322909
69	0x3dc04bad	0.09389434
70	0xbd30c472	-0.043156095
71	0x3e2e60f3	0.1702917
72	0x3d16b512	0.036793776
73	0xbdacbaee	-0.084340915
74	0xbc341cbf	-0.010993182
75	0xbe4d5ce4	-0.20054966
76	0x3cbe030f	0.023194818
77	0xbde750af	-0.11294686
78	0xbbd660eb	-0.0065423152
79	0x3e0d8fd5	0.13824399
80	0xbe5b99da	-0.21445408
81	0xbdc3bacf	-0.09557115
82	0xbda1f584	-0.079081565
83	0x3cbb07bc	0.022830836
84	0x3d7d188e	0.061790995
85	0xbe190c05	-0.14945991
86	0x3c4a952d	0.012364668
87	0x3bf4ae6d	0.0074670822
88	0x3dfbec23	0.12300899
89	0x3d6a0f2d	0.05714338
90	0xbd980bda	-0.074241355
91	0x3d44dc3f	0.048061606
92	0x3dcc8f0d	0.09988222
93	0x3aeb4757	0.0017950338
94	0x3d4d7801	0.050163273
95	0x3c8a110a	0.016853828
96	0x3e85d471	0.26138642
97	0x3dc174ed	0.0944613
98	0x3ca0736d	0.01958629
99	0x3d811e66	0.06304626
100	0xbe125347	-0.1428958
101	0xbd3493e0	-0.044086337
102	0x3e695c28	0.22789061
103	0xbd25bcc6	-0.04046323
104	0x3d56d206	0.052446388
105	0x3e802c63	0.25033864
106	0x3ddd1eb7	0.10796874
107	0x3dbdac7d	0.09261415
108	0x3d04be18	0.03240785
109	0x3e2f28a4	0.17105347
110	0x3bca480a	0.0061731385
111	0xbd65ddf4	-0.056119874
112	0x3cf19563	0.029490178
113	0x3e200bfb	0.1562957
114	0x3e0b1d65	0.13585432
115	0x3e8dd577	0.27701923
116	0xbdcd483c	-0.10023543
117	0x3d9e4b07	0.07729154
118	0x3d8cafa8	0.06869441
119	0x3e2fa7bf	0.17153834
120	0xbe35a9a4	-0.17740494
121	0x3d89b608	0.06724173
122	0x3e2a6553	0.16640215
123	0x3dc4f24b	0.09616526
124	0x3de7b207	0.11313253
125	0x3d391abb	0.045191508
126	0x3daec599	0.085337825
127	0x3d8d299b	0.06892701
128	0x3e621481	0.22078134
129	0x3cc96b89	0.02458741
130	0xbc856e38	-0.016287908
131	0xbdc64a23	-0.09682109
132	0xbdb02d9e	-0.08602451
133	0xbe89108e	-0.26770443
134	0x3b7ef956	0.003890594
135	0xbd7eeebe	-0.0622394
136	0xbe59675e	-0.21230838
137	0xbcfad08a	-0.030617017
138	0x3dfd0080	0.12353611
139	0x3dceb11e	0.10092376
140	0xbdca3139	-0.0987267
141	0xbdacf9ee	-0.08446108
142	0xbde8ae51	-0.11361373
143	0xbe2da572	-0.16957644
144	0xbba2d641	-0.0049693887
145	0x3e7371e0	0.23773909
146	0xbd830c62	-0.06398846
147	0x3e0a4938	0.13504493
148	0xbdd4db70	-0.10393417
149	0xbc0dd1e9	-0.0086560035
150	0x3d1989b3	0.037484836
151	0xbd04235d	-0.032260288
152	0xbdab9a27	-0.083790116
153	0xbe4c7f7d	-0.19970508
154	0x3bbe2f82	0.005804003
155	0x3d36917f	0.04457235
156	0x3e28f6bb	0.1650037
157	0xbdbb2bb0	-0.09139192
158	0x3de341dd	0.11096547
159	0x3d9ada25	0.07561139
160	0x3dba6da3	0.09102943
161	0xbe1c8a8f	-0.15287231
162	0xbecb6a17	-0.39729378
163	0xbe9bb9cd	-0.30415192
164	0x3dd4d82d	0.10392795
165	0xbd071787	-0.03298142
166	0xbe1cf3cd	-0.15327378
167	0x3e28390e	0.16428015
168	0xbe6871c9	-0.22699656
169	0xbe2ef594	-0.17085868
170	0xbd2f533c	-0.042803988
171	0xbe56734d	-0.20942421
172	0xbe7f5cb0	-0.24937701
173	0xbeb5b3ce	-0.35488743
174	0xbdfb6930	-0.12275922
175	0xbdba63a9	-0.0910104
176	0xbe2be1eb	-0.167854
177	0x3d806baa	0.06270535
178	0xbe966029	-0.2937024
179	0xbe39d18b	-0.1814634
180	0x3cf4adcd	0.02986803
181	0xbea87039	-0.3289812
182	0xbe4ff8fc	-0.20309824
183	0xbe84d812	-0.259461
184	0x3d0c3878	0.03423354
185	0xbdaa476c	-0.08314404
186	0xbe36c4b7	-0.17848478
187	0xbdafac43	-0.08577778
188	0x3d47f9f1	0.048822347
189	0xbe9002ab	-0.28127035
190	0xbe009790	-0.12557817
191	0x3d7789d9	0.060434196
192	0x3cf0132d	0.029306019
193	0x3d87b984	0.06627181
194	0x3df3f2ea	0.119115666
195	0x3c8c45d0	0.017123133
196	0x3e563382	0.20918086
197	0x3deee73d	0.11665199
198	0x3d9e1c60	0.07720256
199	0x3dd4b49c	0.10386011
200	0x3d9733aa	0.07382901
201	0x3d8fcb50	0.07021201
202	0x3ddd9e34	0.108211905
203	0x3dcce4cb	0.10004576
204	0x3d89cd28	0.067285836
205	0x3e3d7dc7	0.18505011
206	0x3d7daf87	0.061934974
207	0x3e822ca0	0.2542467
208	0x3dc133da	0.09433718
209	0x3d9a88ac	0.07545599
210	0x3e3a4c11	0.1819308
211	0x3db3f800	0.087875366
212	0xbc9dd1b0	-0.019265026
213	0x3e26bee4	0.16283756
214	0x3e2044fc	0.15651315
215	0x3e16963f	0.14705752
216	0xbda523e1	-0.08063484
217	0x3dd90aa8	0.10597736
218	0x3d3106da	0.043219425
219	0x3d4ae586	0.049535297
220	0x3e3a5309	0.18195738
221	0x3e2c0bd6	0.1680139
222	0x3d88b2e8	0.06674749
223	0x3d7a3369	0.061084185
224	0xbd3fad3a	-0.04679606
225	0x3d54b65f	0.051931735
226	0xbc400349	-0.011719533
227	0x3dc6459e	0.09681247
228	0x3d9abb47	0.075552516
229	0x3daf8caf	0.08571755
230	0x3c5a023c	0.013306197
231	0x3d9001aa	0.070315674
232	0x3c75e8d3	0.015009123
233	0x3d99714f	0.07492315
234	0x3e1cff5c	0.15331787
235	0x3e1fb0f9	0.15594853
236	0x3dc991c7	0.09842258
237	0x3d98de65	0.074642934
238	0x3d0a56ab	0.03377406
239	0x3defe973	0.11714449
240	0x3e238754	0.15969592
241	0x3e505fea	0.20349088
242	0xbb9b73d1	-0.004744031
243	0x3d8508ae	0.06495796
244	0xbe00db30	-0.12583613
245	0x3d0a799f	0.033807393
246	0x3e07a01b	0.13244669
247	0xbcddce1c	-0.02707582
248	0xbda18e9d	-0.078885294
249	0x3c849bc5	0.016187558
250	0xbcc694f2	-0.024240945
251	0x3da48c6f	0.08034598
252	0x3dc658e7	0.096849255
253	0xbcaa4ce2	-0.020788614
254	0x3d04d290	0.03242737
255	0x3e11a95f	0.14224766

arith.constant4 f4 [10, 64]
0	0xbd89166e	-0.06693731
1	0xbe214a78	-0.15751064
2	0xbe928bf8	-0.28622413
3	0xbe441acc	-0.19150847
4	0x3e7710cb	0.241275
5	0x3e75748d	0.23970242
6	0x3e43f85e	0.19137713
7	0xbeaaf905	-0.33393112
8	0xbe742e0f	-0.23845695
9	0x3c580b61	0.013186307
10	0xbe2d69db	-0.16934912
11	0xbe0b59fe	-0.13608548
12	0x3e615831	0.22006299
13	0x3ddaa025	0.106750764
14	0xbe973dd4	-0.2953936
15	0xbe14089b	-0.14456408
16	0xbe4ca42b	-0.199845
17	0x3de8a331	0.11359251
18	0x3da830d5	0.08212439
19	0xbe789234	-0.24274522
20	0xbe20e591	-0.15712573
21	0x3e08935f	0.13337468
22	0xbe03fda2	-0.12889722
23	0xbea2dfc9	-0.3181136
24	0x3d3bbe40	0.045835733
25	0xbe3ff2fe	-0.18745038
26	0x3e4da7b3	0.20083503
27	0xbe57f88a	-0.21090904
28	0x3dede955	0.1161677
29	0xbe842535	-0.25809637
30	0xbd95d680	-0.07316303
31	0xbe4a7679	-0.19771756
32	0xbec36f42	-0.3817082
33	0x3e622c44	0.22087198
34	0xbe9767eb	-0.2957147
35	0xbe28373f	-0.16427325
36	0x3e6cb8f1	0.23117425
37	0x3e850c4d	0.25985947
38	0x3df3276b	0.11872753
39	0x3e313b55	0.1730779
40	0xbe9c54a7	-0.30533335
41	0xbe777854	-0.24166995
42	0xbe659feb	-0.22424285
43	0xbe1a02f6	-0.15040192
44	0xbea8e6cd	-0.32988587
45	0xbeb8b995	-0.36079088
46	0xbe8dcf02	-0.27696997
47	0x3e2760c0	0.16345501
48	0xbcde11f1	-0.027108165
49	0x3d51c678	0.051214665
50	0xbdf237f9	-0.11827082
51	0x3e8d4f94	0.27599776
52	0xbd750741	-0.05982137
53	0x3e82a17c	0.25513828
54	0x3e4d6dfa	0.20061484
55	0x3e1096b6	0.14119992
56	0x3e4e04e7	0.20119058
57	0xbeafeafe	-0.34358972
58	0x3d8c2ba6	0.06844263
59	0xbe252035	-0.16125567
60	0x3e0fe5f5	0.14052565
61	0x3d9bffbb	0.07617136
62	0xbd04f7b4	-0.03246279
63	0xbdc34cb1	-0.09536112
64	0xbea3b2c6	-0.3197233
65	0xbe21dfc3	-0.15808015
66	0xbe9a573a	-0.30144674
67	0x3df7dd2a	0.121027306
68	0x3e951e3a	0.29124624
69	0x3e4f02e7	0.20215951
70	0xbdf017c1	-0.11723281
71	0x3e8960b5	0.26831594
72	0xbdfca3a5	-0.123359
73	0xbda22339	-0.079168744
74	0x3e296940	0.16544056
75	0x3e8e5d86	0.27805728
76	0x3e51d473	0.20491199
77	0x3de3fe11	0.11132444
78	0x3dd60649	0.104504175
79	0xbeada987	-0.33918402
80	0xbde9a312	-0.11408056
81	0x3e3e1541	0.18562795
82	0xbe4f97ea	-0.20272794
83	0xbd06353d	-0.032765616
84	0xbe887ad8	-0.26656222
85	0x3e0cd595	0.1375335
86	0xbe2497f5	-0.16073592
87	0x3e7667bf	0.24063013
88	0x3e5a656a	0.21327749
89	0x3e41814f	0.18896984
90	0xbe91b794	-0.28460371
91	0xbdaf6f7c	-0.08566186
92	0xbebc0454	-0.36722052
93	0xbc46a117	-0.012123368
94	0xbc273b96	-0.0102070775
95	0xbe54997b	-0.20761673
96	0xbc469643	-0.012120786
97	0xbe821edc	-0.2541417
98	0x3dea8b4e	0.114523515
99	0x3e705381	0.23469354
100	0xbef06510	-0.46952105
101	0x3dcd75d3	0.10032239
102	0x3e510d8c	0.20415324
103	0xbe3edfa3	-0.18639998
104	0xbc2c546d	-0.010518176
105	0xbcc6967c	-0.024241678
106	0x3dbcf86b	0.092270695
107	0xbe86f85c	-0.26361358
108	0xbe038f42	-0.12847617
109	0x3e4090ef	0.18805288
110	0xbe23a809	-0.15982069
111	0x3e32ccb9	0.17460908
112	0xbe59f2cc	-0.21284026
113	0xbec376f3	-0.3817669
114	0x3e268924	0.16263252
115	0xbe8d4fd1	-0.27599958
116	0x3e1e6076	0.15466484
117	0xbe2b8e20	-0.16753435
118	0x3e9c56b2	0.30534893
119	0x3c646857	0.013940892
120	0xbd9ecc82	-0.077538505
121	0xbddb8f92	-0.10720743
122	0xbe0148d3	-0.12625436
123	0xbe918ee0	-0.28429317
124	0xbe0c33a9	-0.13691582
125	0xbc886778	-0.0166509
126	0x3e589fec	0.21154755
127	0xbe84b275	-0.25917402
128	0x3dc474fc	0.095926255
129	0x3e50c5a2	0.20387891
130	0xbe77d8eb	-0.24203841
131	0x3ddac7c9	0.10682637
132	0xbe52f3b5	-0.2060078
133	0xbe0d5657	-0.13802467
134	0x3e8ce3ed	0.27517644
135	0xbd782a7d	-0.060587395
136	0x3e2d4cc3	0.16923814
137	0x3d870b5e	0.06593965
138	0xbe6adddf	-0.229362
139	0x3d4e1d8f	0.050321158
140	0x3e5fc0cf	0.21850894
141	0xbe4e4874	-0.20144826
142	0xbdecaf9e	-0.11556934
143	0xbdfcb27c	-0.12338731
144	0x3d885efd	0.066587426
145	0xbdc7dd19	-0.09758968
146	0xbec92f0c	-0.39293706
147	0x3c59ed5c	0.01330122
148	0x3d7e3cf3	0.062069844
149	0xbd8b30f0	-0.067964435
150	0x3e52ef7a	0.20599166
151	0xbe72f93f	-0.23727892
152	0xbdb90ea1	-0.09035993
153	0xbd417545	-0.047230978
154	0x3e23303f	0.15936373
155	0x3df6ab7e	0.12044428
156	0xbdb90d5c	-0.09035751
157	0xbe891180	-0.26771164
158	0xbe423afd	-0.18967815
159	0xbe7fecf6	-0.24992737
160	0x3cf93145	0.030419001
161	0x3e32aa79	0.17447843
162	0x3e21eba3	0.15812545
163	0xbe8be47c	-0.27322757
164	0xbcd8ed87	-0.02648045
165	0x3e6f721e	0.23383376
166	0xbe005b7c	-0.12534899
167	0x3e6b053a	0.22951213
168	0xbd87d85f	-0.066330664
169	0x3e6b290f	0.22964881
170	0x3dd65f1f	0.10467362
171	0xbe81e6fd	-0.25371543
172	0xbdfcda05	-0.123462714
173	0x3d73c1ea	0.059511103
174	0xbcbb1a79	-0.022839772
175	0xbd38fa82	-0.045160778
176	0x3dbf9ab0	0.09355676
177	0xbe5dfee8	-0.2167927
178	0x3e1f0b0b	0.15531556
179	0xbe0aa714	-0.13540298
180	0x3e3a5cf0	0.18199515
181	0xbe6afa32	-0.22947004
182	0xbe66c0bb	-0.22534458
183	0x3cdb3543	0.026758796
184	0xbe33a19c	-0.17542118
185	0xbd82341f	-0.063575976
186	0xbcc4f48b	-0.024042388
187	0xbc10453b	-0.008805568
188	0x3c0d673e	0.008630572
189	0x3dc7ac7b	0.09749695
190	0x3e8a3c3e	0.26999086
191	0xbe0d446f	-0.13795637
192	0xbe61a4c4	-0.2203551
193	0x3dd67ade	0.10472654
194	0x3e742740	0.23843098
195	0x3db55758	0.0885455
196	0xbe88cc1c	-0.26718223
197	0xbea4de2f	-0.32200763
198	0x3c3425ca	0.010995338
199	0xbe74cf7e	-0.23907277
200	0xbdf4daf4	-0.119558245
201	0x3e9fe99d	0.3123292
202	0xbebbaac3	-0.36653718
203	0x3e8a1899	0.26971892
204	0x3be928e5	0.0071154707
205	0xbe7006e1	-0.23440124
206	0xbe0cf1b5	-0.13764079
207	0x3c41888f	0.011812343
208	0x3e753aa8	0.23948157
209	0xbe73a7bf	-0.23794459
210	0xbe997b4a	-0.29976875
211	0xbe852e89	-0.26012066
212	0xbee57530	-0.4481597
213	0xbe2fed54	-0.17180377
214	0x3e4eca47	0.2019435
215	0xbce7a2fd	-0.028275961
216	0x3e807bc5	0.2509443
217	0xbd8b4a80	-0.06801319
218	0x3ba9323f	0.0051634605
219	0x3e0104ae	0.12599441
220	0xbe4a2cdf	-0.1974368
221	0x3cf86bb1	0.030324789
222	0xbdeb2c08	-0.11483008
223	0xbd663fda	-0.056213237
224	0xbeaa1712	-0.33220726
225	0x3e2a3ed8	0.16625535
226	0x3e48d9f3	0.19614391
227	0xbe8670d8	-0.26257968
228	0x3e0e78a0	0.13913202
229	0xbe4a0bac	-0.19731015
230	0x3e978535	0.29593816
231	0xbe5ac7ad	-0.21365233
232	0x3e2b1dd2	0.16710594
233	0xbd940f0f	-0.07229435
234	0x3e02002b	0.12695377
235	0xbe2953fd	-0.16535945
236	0x3dffc604	0.1248894
237	0x3e25dab9	0.16196717
238	0xbe9197bf	-0.28436086
239	0xbe0b04db	-0.13576071
240	0xbe2517e2	-0.16122392
241	0x3dd643b9	0.10462136
242	0x3e8a977d	0.270687
243	0x3d64a1f6	0.05581852
244	0x3dff467c	0.12464616
245	0xbe0ee5c8	-0.13954842
246	0xbe5a2ccf	-0.21306156
247	0xbecef307	-0.4041979
248	0xbe2c4c53	-0.1682599
249	0x3e2678d2	0.16257027
250	0xbea7db65	-0.32784572
251	0x3dfd03e7	0.1235426
252	0xbdf47bf0	-0.11937702
253	0x3d2d213d	0.042268027
254	0x3e5877c6	0.2113944
255	0xbe7ef13e	-0.24896714

arith.constant5 f4 [64, 2048]
0	0xbc07e148	-0.008293457
1	0x3d9f8513	0.07789054
2	0x3d5315dc	0.05153452
3	0x3e20df6f	0.15710233
4	0x3cbce0e1	0.02305645
5	0x3de5d88a	0.11222942
6	0x3db04adb	0.086080275
7	0xbd8f10ed	-0.0698565
8	0xbcee9678	-0.029124483
9	0x3d3a2c47	0.045452382
10	0xbccbf1b9	-0.024895536
11	0xbcbd7373	-0.02312634
12	0xbe47bd34	-0.19505769
13	0xbcbbc593	-0.02292136
14	0x3ddbdd80	0.10735607
15	0x3e3025e8	0.1720196
16	0x3d6a25bb	0.05716489
17	0x3e12e71e	0.14345977
18	0x3dc0987e	0.094040856
19	0x3ce3b6ec	0.027797185
20	0x3daea1e0	0.08526969
21	0xbc9b75a6	-0.018976998
22	0x3b91775f	0.004439279
23	0x3d7be248	0.061495095
24	0xbd39f4ec	-0.04539959
25	0x3e1d98f2	0.15390375
26	0xbc07bbda	-0.008284533
27	0x3bf1fde2	0.0073850015
28	0xbdf14202	-0.11780168
29	0x3d17357c	0.03691624
30	0xbd3a7898	-0.045525163
31	0x3ccf15ab	0.025278887
32	0xbc3332d1	-0.010937409
33	0xbcb1a70c	-0.0216861
34	0x3d55ccfb	0.052197438
35	0x3ca377d5	0.019954601
36	0xbd9311a0	-0.07181096
37	0xbd2fc692	-0.04291398
38	0x3dd962ef	0.10614573
39	0xbd369463	-0.044575106
40	0xbcd922a7	-0.026505781
41	0x3d1a2975	0.037637193
42	0xbd664395	-0.056216795
43	0xbd2f6244	-0.042818323
44	0xbd842878	-0.06453031
45	0xbaedae3b	-0.001813359
46	0xbd432551	-0.04764301
47	0x3dbaa788	0.09113985
48	0x3dfdcf7c	0.1239309
49	0xbdedd604	-0.11613086
50	0x3d8988f4	0.06715575
51	0x3df04b03	0.11733057
52	0xbda2eff8	-0.07955927
53	0xbde3d207	-0.11124044
54	0xbca8e2ff	-0.020616053
55	0x3c5f8402	0.013642313
56	0xbd710fc0	-0.05885291
57	0xbe0bfa6b	-0.13669746
58	0xbdbcdc0e	-0.092216596
59	0x3da47347	0.080298
60	0xbd82809f	-0.06372189
61	0xbe1ec26d	-0.15503855
62	0xbc7623ed	-0.015023214
63	0xbe01a740	-0.12661457
64	0x3cb16c3c	0.021658055
65	0x3d2c3b62	0.04204882
66	0xbcd32871	-0.02577612
67	0xbdd83e86	-0.105588004
68	0x3ca42c52	0.020040665
69	0xbd07bf78	-0.033141583
70	0x3d8efcc1	0.06981803
71	0xbdbeeb15	-0.09322182
72	0xbda70d84	-0.08156875
73	0x3dc65d9d	0.09685824
74	0xbe1e8c08	-0.15483105
75	0xbe006e08	-0.12541974
76	0x3bcc7785	0.006239834
77	0x3e084ef4	0.13311368
78	0xbd4649d4	-0.04841025
79	0x3dd785be	0.10523556
80	0x3d9ea119	0.07745571
81	0x3dfb3be6	0.12267284
82	0x3dc2703d	0.09494064
83	0xbd23826a	-0.039919294
84	0x3dfb755c	0.12278244
85	0x3b86ac25	0.0041098767
86	0xbdb8397c	-0.08995339
87	0xbb92d396	-0.0044807894
88	0x3de28993	0.110613964
89	0x3ba274e9	0.0049577844
90	0xbdcba02e	-0.09942661
91	0xbd289831	-0.041160766
92	0x3c8933f9	0.016748415
93	0xbd9d7927	-0.076891236
94	0xbcc20af3	-0.023686862
95	0x3c03c2ba	0.008042032
96	0xbce461a8	-0.027878597
97	0xbdabc5d4	-0.08387342
98	0xbd5a401e	-0.053283803
99	0x3caeb116	0.021324676
100	0xbe0bb892	-0.13644627
101	0x3db4d3ed	0.08829484
102	0x3ddbd9eb	0.10734924
103	0x3d7b2508	0.061314613
104	0x3d418fe2	0.047256358
105	0x3db4c06c	0.08825764
106	0x3e02d697	0.12777172
107	0x3e1a8b37	0.15092169
108	0x3dd4982e	0.103805885
109	0x3e090011	0.13378932
110	0xbd543503	-0.05180837
111	0xbcb3f8f7	-0.021969302
112	0x3e4ef9de	0.20212504
113	0x3e1368ed	0.14395495
114	0x3d8e15eb	0.06937774
115	0xbdd29c0b	-0.10283669
116	0xbd33110d	-0.043717433
117	0x3d5c3105	0.053757686
118	0x3df5669e	0.11982463
119	0x3e326b4e	0.17423746
120	0x3d06411e	0.032776944
121	0x3e123220	0.14276934
122	0x3d83c40e	0.06433879
123	0x3d6b3020	0.057418942
124	0xbdf93281	-0.12167836
125	0xbdf6e3b2	-0.12055148
126	0x3dade0be	0.08490132
127	0xbb45a8bd	-0.003016039
128	0xbc80ef9f	-0.01573926
129	0x3d853da4	0.06505898
130	0xbd85d09b	-0.06533929
131	0x3df42d5b	0.11922713
132	0xbd1cd975	-0.03829332
133	0xbc0dd390	-0.008656397
134	0x3c0f4758	0.008745037
135	0xbd8c9e19	-0.06866092
136	0xbacd7552	-0.0015675223
137	0xbc9de651	-0.019274862
138	0xbd7e8ab4	-0.062143996
139	0x3c62eb65	0.013850068
140	0xbd47c484	-0.048771396
141	0x3cdcd997	0.026959224
142	0xbdfabd2e	-0.122431144
143	0x3d332c39	0.043743346
144	0xbd02bb22	-0.031916745
145	0x3d30ec20	0.043193936
146	0x3da2a79b	0.079421245
147	0x3d3d2006	0.046173118
148	0x3d8c2ec3	0.068448566
149	0xbd040ad2	-0.03223688
150	0xbd93264f	-0.07185041
151	0x3cc474d1	0.023981484
152	0x3c8b04e9	0.016970115
153	0x3dbfb15e	0.09360002
154	0x3d79d9ac	0.060998604
155	0xbcf26073	-0.029587006
156	0xbd296c41	-0.041363005
157	0x3cda93c4	0.026681788
158	0xbc103678	-0.008802049
159	0xbd47f467	-0.048817065
160	0x3c4fca87	0.012682564
161	0xbd22d4ff	-0.03975391
162	0x3c42c1ef	0.011887058
163	0x3afcb5ca	0.0019280252
164	0x3c8b3ec9	0.016997712
165	0x3df47261	0.119358785
166	0x3ce0140c	0.02735331
167	0xbd82cb27	-0.063864045
168	0x3c0d2882	0.008615615
169	0xbd73c7d7	-0.059516754
170	0xbdbb890b	-0.09156998
171	0x3d207e00	0.039182663
172	0xbd4ecba3	-0.05048717
173	0x3dac912c	0.08426127
174	0xbd141961	-0.036157016
175	0xbd723fde	-0.05914294
176	0x3dea4d83	0.114405654
177	0xbd7f33bf	-0.06230521
178	0xbc82c08c	-0.015960954
179	0x3db432b6	0.08798735
180	0x3e59bf39	0.21264352
181	0xbd9b9023	-0.07595851
182	0xbd9d04ea	-0.07666953
183	0xbc90005d	-0.017578298
184	0x3bc8eb83	0.006131591
185	0x3c97a091	0.018509181
186	0xbd70b64f	-0.058767613
187	0x3d3b1efe	0.045683853
188	0xbd5e2cbf	-0.054241892
189	0xbe3373f0	-0.17524695
190	0xbc771a2d	-0.015081924
191	0xbcc00b86	-0.023442995
192	0xbd6000d4	-0.05468829
193	0x3cd11a7d	0.025525326
194	0x3d1692b0	0.036760986
195	0xbd0233e0	-0.031787753
196	0x3c3b3e20	0.011428386
197	0x3b069fdf	0.0020542068
198	0xbcc3393a	-0.023830999
199	0xbda57608	-0.08079153
200	0xbb95a5e0	-0.004566893
201	0x3bf88524	0.007584231
202	0x3d8d8a34	0.06911126
203	0x3d4f5966	0.050622366
204	0x3d8fe25f	0.07025599
205	0x3da04f7f	0.07827663
206	0xbcf12520	-0.029436648
207	0xbd5de862	-0.054176696
208	0xbd1c9ed0	-0.038237393
209	0x3ccd6982	0.025074724
210	0x3e2f3c52	0.17112854
211	0x3cb96962	0.022633258
212	0x3c55ce54	0.013049681
213	0x3c4a1dcf	0.0123362085
214	0xbd8f7a9d	-0.070058085
215	0xbd930643	-0.07178929
216	0x3dd7b079	0.10531706
217	0x3d0aea2d	0.033914734
218	0xbd576f72	-0.052596517
219	0xbda83fcf	-0.082152955
220	0x3d76c4b1	0.060246173
221	0xbd897f1e	-0.06713699
222	0xbd7848d8	-0.060616344
223	0x3e0c2a41	0.13687994
224	0x3d1956b8	0.037436217
225	0xbd774a73	-0.060373735
226	0xbdabbc20	-0.08385491
227	0x3ca5d6f8	0.020244107
228	0x3daa3a3e	0.0831189
229	0x3d5704b8	0.052494735
230	0x3cc8b80e	0.024501827
231	0x3dc886fe	0.09791373
232	0xbbf9d2da	-0.0076240124
233	0x3d877c86	0.06615548
234	0x3e12299e	0.14273688
235	0xbbb91046	-0.005647692
236	0x3ce97443	0.02849782
237	0x3d74e0bd	0.05978464
238	0x3c463efd	0.0120999785
239	0xbda4011a	-0.080080226
240	0x3dac2e87	0.08407312
241	0x3cd1c5af	0.025606958
242	0x3d21b416	0.039478384
243	0xbd4cbcef	-0.04998487
244	0xbd2b579a	-0.04183159
245	0xbd3c9b98	-0.046046823
246	0x3d18ada2	0.037274964
247	0x3dc2349d	0.094826914
248	0x3d3ff393	0.04686315
249	0x3e0e087a	0.13870421
250	0x3d08ac82	0.03336764
251	0x3dc5aa36	0.09651606
252	0x3dcebc2e	0.10094486
253	0xbdf85b45	-0.12126783
254	0x3de56ec0	0.112027645
255	0x3daeb3ec	0.08530411

arith.constant6 f4 [10]
0	0xbd83aa0a	-0.06428917
1	0x3d6d417d	0.057923783
2	0x3de8c29e	0.11365245
3	0xbd8b7da9	-0.06811077
4	0xbdb47ae0	-0.08812499
5	0x3adba654	0.0016757944
6	0xbd1082c9	-0.035280976
7	0xbd69fb06	-0.05712416
8	0x3cb9fba7	0.022703005
9	0x3d963433	0.07334175

arith.constant7 f4 [64]
0	0xbd50e536	-0.050999843
1	0xbd8ca4a1	-0.06867338
2	0xbd5b3912	-0.053521223
3	0xbc898980	-0.016789198
4	0x3d5127d5	0.051063377
5	0x3d10b19b	0.035325628
6	0xbda2e981	-0.079546936
7	0x3dc4c09d	0.096070506
8	0xbce6744e	-0.02813163
9	0xbd55d60e	-0.05220609
10	0x3d1f7732	0.038932033
11	0x3cf940f3	0.030426478
12	0xbc339a76	-0.010962119
13	0xbc5b7d72	-0.013396608
14	0xbd28a5f4	-0.04117389
15	0xbd9280c5	-0.07153467
16	0xbd30039b	-0.04297219
17	0x3ccaf41e	0.024774607
18	0xbd190e28	-0.037367016
19	0xbd605deb	-0.054777067
20	0xbd464406	-0.048404716
21	0xbda88b75	-0.08229724
22	0xbd354691	-0.04425675
23	0x3beccf21	0.00722684
24	0xbc9104f5	-0.017702559
25	0x3d8a0abe	0.0674033
26	0xbd7c6dce	-0.061628155
27	0xbc4d81b7	-0.012543133
28	0xbd30032f	-0.042971786
29	0xbc40f2fb	-0.011776681
30	0xbd85ec99	-0.06539268
31	0xbcb23a47	-0.021756304
32	0xbcebdeae	-0.028792705
33	0xbd45e3eb	-0.048313063
34	0xbc596ad7	-0.0132701015
35	0x3bc9842a	0.0061497884
36	0xbd0e5617	-0.03475007
37	0xbd733d4c	-0.05938463
38	0xbcaa1b55	-0.020764986
39	0xbc4b6bec	-0.012415867
40	0x3ce6938f	0.028146533
41	0xbd1a0e23	-0.037611138
42	0x3cb3fee7	0.021972133
43	0xbd9226bf	-0.071362965
44	0xbb507aa3	-0.0031811378
45	0xbaa2b43a	-0.0012413331
46	0xbbfb3657	-0.00766639
47	0x3d46e4f0	0.048558176
48	0xbd8c0617	-0.06837099
49	0xbcde73d2	-0.027154837
50	0xbd839e5d	-0.0642669
51	0xbcb40d40	-0.021978974
52	0xbd1b0e23	-0.03785528
53	0xbc9852a1	-0.018594088
54	0x3db3b848	0.08775383
55	0xbd1aa49e	-0.037754647
56	0xbce8fb29	-0.028440075
57	0xbc056b55	-0.008143266
58	0xbcee3981	-0.029080154
59	0xbc915260	-0.017739475
60	0xbcff571b	-0.031169465
61	0xbc66733f	-0.014065563
62	0xbbac4242	-0.005256922
63	0xbca2fe23	-0.019896572

sequential_3_1/conv2d_9_1/convolution f4 [32, 3, 3, 1]
0	0x3d2b5dcf	0.04183751
1	0x3e39be04	0.18138891
2	0x3e3d46ae	0.18483993
3	0xbdb6eaa2	-0.089314714
4	0x3e035759	0.12826289
5	0x3dd21fc6	0.102599666
6	0xbec0287b	-0.37530884
7	0xbe7e5092	-0.24835423
8	0xbe49fe14	-0.1972583
9	0x3d9563f7	0.072944574
10	0xbdfcaca1	-0.12337614
11	0xbe07c301	-0.13257982
12	0x3dce89cf	0.10084879
13	0xbc768bf2	-0.015048014
14	0xbdf1c808	-0.11805731
15	0x3dd8aaad	0.10579429
16	0x3e222f79	0.15838422
17	0x3de339a1	0.11094976
18	0x3d8c8400	0.068611145
19	0x3dfd44e2	0.12366654
20	0xbd8a4f9d	-0.06753466
21	0x3d7a3300	0.061083794
22	0x3dba5551	0.09098304
23	0xbd94fc6b	-0.072747074
24	0x3dc55201	0.09634782
25	0x3d446f3f	0.047957655
26	0x3dffd6a5	0.12492112
27	0x3e21506c	0.15753335
28	0xbde3ea24	-0.11128643
29	0x3d020d69	0.03175107
30	0x3ac96cc9	0.0015367504
31	0xbd73bab8	-0.05950424
32	0xbdb1bef6	-0.08679001
33	0x3e063a14	0.13108093
34	0xbda0ca8d	-0.078511335
35	0x3d9d7b9a	0.07689591
36	0x3a20b63e	0.0006130672
37	0x3e0fdd55	0.14049275
38	0x3e5f641e	0.21815535
39	0xbe8bc034	-0.27295077
40	0xbdbe7c3d	-0.0930104
41	0xbb8907e8	-0.0041818507
42	0xbe8bb4e3	-0.27286443
43	0xbd2094a3	-0.03920425
44	0x3e4d484e	0.20047113
45	0xbe84e7ef	-0.259582
46	0x3e4fbaf6	0.20286164
47	0xbb8f05bc	-0.0043646973
48	0xbe209507	-0.1568185
49	0x3e1c265e	0.15249011
50	0x3d90719b	0.070529185
51	0xbdc74127	-0.09729224
52	0x3e26fa5b	0.1630644
53	0xbd7b03c0	-0.061282873
54	0xbd95ba6e	-0.07310949
55	0xbe680794	-0.22659141
56	0xbe78ebcc	-0.243087
57	0xbdaaeb76	-0.08345692
58	0xbd868157	-0.06567638
59	0xbcb0b3fd	-0.0215702
60	0x3e212ac2	0.15738967
61	0x3e6a3917	0.2287334
62	0x3e892908	0.26789117
63	0xbc1079f4	-0.008818138
64	0x3e4ff6e3	0.20309024
65	0x3d85fc73	0.065422915
66	0xbe531674	-0.20614034
67	0xba8172e1	-0.0009876156
68	0x3e63d614	0.22249633
69	0xbe30ea86	-0.17276964
70	0xbe469447	-0.19392501
71	0x3e2dc92d	0.16971274
72	0x3d9733ed	0.07382951
73	0xbc65070e	-0.013978733
74	0x3dd10b7c	0.102072686
75	0xbd4acf4b	-0.049514096
76	0x3e01d92f	0.12680505
77	0xbd49f61f	-0.049306985
78	0xbcb3a37a	-0.021928538
79	0xbd525595	-0.05135115
80	0x3d019b9d	0.031642545
81	0x3ba391a1	0.0049917256
82	0xbe7afe5b	-0.24511091
83	0xbe8108d0	-0.25202036
84	0xbc8df69c	-0.017329507
85	0x3cecfb3e	0.028928395
86	0xbcb16aa8	-0.021657303
87	0x3dcfba23	0.10142925
88	0x3e11e928	0.14249098
89	0x3e6e4e70	0.23272109
90	0x3e1f8900	0.15579605
91	0xbe1e3b75	-0.15452369
92	0xbe54570e	-0.20736334
93	0x3e38b7cf	0.18038867
94	0xbdae3e53	-0.08507981
95	0xbd9e1143	-0.07718136
96	0x3e1b7dd7	0.15184723
97	0xbe3b65c8	-0.18300545
98	0xbe7fb0de	-0.24969813
99	0x3bb36a87	0.0054753455
100	0x3c737a4f	0.014860704
101	0xbe2ff678	-0.17183864
102	0xbcf50b05	-0.029912481
103	0x3e15c341	0.14625265
104	0xbcde32a9	-0.027123766
105	0x3e196612	0.14980343
106	0x3ba36dbc	0.0049874466
107	0x3c7de72a	0.015497008
108	0xbe72e17d	-0.2371883
109	0xbcbc32d8	-0.022973463
110	0x3d3411d8	0.04396233
111	0xbe207c2f	-0.15672372
112	0x3debdc17	0.11516588
113	0x3c371a76	0.011175742
114	0x3d725213	0.059160303
115	0x3dafd698	0.085858524
116	0x3e387847	0.18014632
117	0x3d1a96f4	0.037741616
118	0xbd1d9811	-0.0384751
119	0xbcb665d7	-0.022265358
120	0xbd52a3ac	-0.05142562
121	0x3db689d9	0.08913011
122	0x3dede9e7	0.11616879
123	0x3e291b09	0.1651422
124	0x3e01c7b7	0.12673841
125	0x3e2c05e7	0.16799127
126	0x3dba0f66	0.09084968
127	0x3d9a2c8a	0.075280264
128	0x3e0f63a2	0.1400285
129	0x3aa6c61a	0.0012723834
130	0xbdfd95dd	-0.123821
131	0x3c4af844	0.012388293
132	0x3d89a16f	0.06720244
133	0xbe0bb7d6	-0.13644347
134	0x3cdcd60f	0.02695754
135	0xbd3d227f	-0.046175476
136	0xbdae77b0	-0.08518922
137	0x3d8838e5	0.06651477
138	0xbe4e36fb	-0.20138161
139	0xbd779ace	-0.060450368
140	0x3e1db275	0.15400107
141	0xbe54252e	-0.20717308
142	0x3dc169e8	0.09444028
143	0x3e533cd3	0.20628671
144	0xbe80daa4	-0.2516681
145	0xbd6a8441	-0.057255033
146	0x3de94126	0.11389379
147	0x3d622de5	0.05521955
148	0x3dad2cc7	0.08455806
149	0x3db46407	0.08808141
150	0x3e364b2e	0.17802116
151	0x3e438e97	0.19097362
152	0xbd424a24	-0.047433987
153	0xbe123f03	-0.1428185
154	0x3c9d130d	0.019174123
155	0x3e1320f0	0.14368033
156	0x3e3860e4	0.18005711
157	0x3d161bf4	0.036647752
158	0xbd5442dc	-0.051821575
159	0x3e23698b	0.1595823
160	0xbdc7229a	-0.097233966
161	0xbe7025df	-0.23451947
162	0x3dd049cc	0.10170326
163	0x3d2ffab0	0.042963684
164	0x3d0918aa	0.033470787
165	0x3c9fedf0	0.019522637
166	0xbdc2fc49	-0.09520776
167	0x3df63ff4	0.12023917
168	0x3dcaef96	0.09908979
169	0x3cf9bbf0	0.030485123
170	0x3ddc6fd1	0.10763515
171	0xbe08d05a	-0.1336073
172	0xbe877966	-0.26459807
173	0xbe7cde60	-0.24694204
174	0xbbf4ee36	-0.007474686
175	0x3dbc8fc6	0.0920711
176	0xbcdf6ff0	-0.027275056
177	0x3e874c96	0.26425618
178	0x3d57861d	0.052618135
179	0x3e52178a	0.20516792
180	0x3dfbe189	0.12298877
181	0x3def3720	0.11680436
182	0x3e58df59	0.2117895
183	0x3da97c91	0.08275712
184	0x3d614fb4	0.05500765
185	0xbd448769	-0.0479807
186	0xbe681a81	-0.2266636
187	0xbe51d3ed	-0.20491
188	0xbe55247b	-0.20814697
189	0x3deadf70	0.114683986
190	0xbc418faa	-0.011814037
191	0x3dc36c38	0.095421255
192	0xbcb81a4e	-0.02247348
193	0x3df117a3	0.117720865
194	0x3c2daeaf	0.01060073
195	0x3e145d5d	0.1448874
196	0x3dc3b6bd	0.09556339
197	0xbc91a61f	-0.017779408
198	0x3e181a7c	0.14853853
199	0x3e1d5b45	0.15366848
200	0xbe7443a1	-0.23853923
201	0x3e1f06b6	0.15529904
202	0x3d88c227	0.066776566
203	0xbe835666	-0.25651854
204	0xbcff7ae5	-0.03118653
205	0x3e21873f	0.15774249
206	0xbe2d03cd	-0.16895981
207	0xbd40f47e	-0.047108166
208	0x3d78da29	0.06075493
209	0xbe11fabd	-0.14255805
210	0x3c41f918	0.011839174
211	0x3e0f14cd	0.13972779
212	0x3daddc7c	0.0848932
213	0xbcb008af	-0.021488516
214	0x3dd2ab09	0.102865286
215	0x3e21fbcf	0.15818714
216	0x3e26582d	0.16244574
217	0x3e826bc0	0.25472832
218	0x3d12380b	0.035697978
219	0x3c2e1454	0.010624964
220	0x3db9e7fc	0.09077451
221	0x3d6682c5	0.056277055
222	0xbdbb8bd2	-0.09157528
223	0xbe977a5a	-0.29585534
224	0xbebea9ff	-0.37239072
225	0x3c371e04	0.01117659
226	0x3dd14b1d	0.10219405
227	0x3daa822f	0.08325612
228	0xbcb07f2d	-0.021545017
229	0x3d87a62c	0.06623492
230	0x3e1a7977	0.15085398
231	0xbdc07544	-0.09397367
232	0xbc8b5784	-0.017009504
233	0x3dab6aea	0.083700016
234	0xbe8f119a	-0.27943116
235	0xbe5300d3	-0.20605783
236	0xbe1a9a52	-0.15097931
237	0xbb2cd465	-0.0026371714
238	0x3c61fc50	0.013793066
239	0x3e685c1f	0.22691391
240	0x3d97adae	0.07406174
241	0x3e3d18d6	0.18466505
242	0x3de95f12	0.11395086
243	0x3d52f302	0.05150128
244	0xbe06c9d3	-0.13162927
245	0xbe5edc82	-0.21763805
246	0x3de34357	0.110968284
247	0x3e32ae83	0.17449383
248	0xbdeb5663	-0.11491086
249	0xbb481a70	-0.0030533336
250	0x3cfd8295	0.030946055
251	0x3e1a762f	0.15084146
252	0x3c475352	0.012165861
253	0xbe4c2548	-0.19936097
254	0xbe8f0ebe	-0.27940935
255	0x3e7f23d1	0.24916007

sequential_3_1/conv2d_9_1/Relu;sequential_3_1/conv2d_9_1/add;sequential_3_1/conv2d_9_1/convolution; f4 [32]
0	0xbbae8bd1	-0.005326726
1	0xbdb8a698	-0.0901615
2	0xbe2ab3fd	-0.16670223
3	0xbdb929df	-0.090411894
4	0xbc01cec4	-0.007922832
5	0xbcdd3588	-0.027003065
6	0xbc439ee7	-0.011939741
7	0xbd1667c1	-0.03672004
8	0xbdf35f36	-0.118833944
9	0xbc464d0c	-0.01210333
10	0x3d3856f8	0.045004815
11	0xbde30872	-0.11085595
12	0xbc321135	-0.01086836
13	0xbd7328fc	-0.059365258
14	0xbdf87704	-0.121320754
15	0xba87b299	-0.0010352909
16	0xbe15f1d4	-0.14643031
17	0xbcccf448	-0.025018826
18	0xbd9b1e4b	-0.07574137
19	0xbc71c358	-0.014756046
20	0x3bdae79e	0.006680443
21	0xbdbd4b00	-0.09242821
22	0xbc620eed	-0.013797504
23	0xbdcc6990	-0.09981072
24	0x3d44d8a1	0.048058156
25	0xbda9c11c	-0.08288786
26	0xbc45aed8	-0.012065612
27	0xbda2e498	-0.07953757
28	0xbba7671d	-0.0051087276
29	0xbd4e9461	-0.050434474
30	0xbd440239	-0.047853682
31	0x3cf56188	0.029953733
